recipes/LJSpeech/quantization_torchkmeans/metrics/model_v8.onnx (onnx, 224860 bytes, 15 tensors)

mos_estimator_small_1/dense_5/MatMul/ReadVariableOp/resource:0 f4 [64, 1]
0	0xba121e53	-0.00055739767
1	0x3da90a2f	0.082538955
2	0xbcf9b4a9	-0.030481653
3	0x3ddbcc90	0.107323766
4	0xbddccdd9	-0.1078145
5	0xbc07f457	-0.008298001
6	0xbd433f22	-0.04766763
7	0xbe025e73	-0.12731342
8	0x3e94e2ac	0.29079187
9	0x3e25d043	0.16192727
10	0x3d82065c	0.06348869
11	0xbd8cc85a	-0.068741515
12	0x3e653200	0.22382355
13	0x3db9b82e	0.090683326
14	0xbd89c235	-0.06726495
15	0x3e0588ad	0.13040419
16	0x3b4939af	0.0030704548
17	0xbcd11e39	-0.025527107
18	0xbdf5e2a1	-0.12006117
19	0x3d0ae648	0.03391102
20	0x3db2725e	0.0871322
21	0xb6761980	-3.66717e-06
22	0xbe3e87c9	-0.18606485
23	0x3e5e6868	0.21719515
24	0x3d91444b	0.07093104
25	0xbd765a88	-0.06014493
26	0x3e01a9f8	0.12662494
27	0x3d23c093	0.039978575
28	0xbe3b4bec	-0.1829068
29	0xbdcbf6a5	-0.09959153
30	0x3b9d43d5	0.004799346
31	0x3d88224c	0.066471666
32	0xbd395789	-0.045249496
33	0xbc62fb5c	-0.013853874
34	0xbe0b934a	-0.13630405
35	0xbd9ad12c	-0.075594276
36	0x3dca0cda	0.098657325
37	0xbdcab524	-0.09897831
38	0xbd8885b5	-0.066661276
39	0xbe1b72f2	-0.15180567
40	0xbcfec859	-0.031101393
41	0xbdacbd05	-0.0843449
42	0x3e616b91	0.2201369
43	0x3e33f733	0.17574768
44	0xbd02fdd9	-0.03198037
45	0x3cb19225	0.021676132
46	0xbd18e66e	-0.03732913
47	0x3ddf8359	0.109137245
48	0x3d81146e	0.06302725
49	0x3deb6057	0.11492985
50	0xbe04c91a	-0.12967339
51	0xbdad5a1a	-0.08464451
52	0xbd984f0b	-0.07436951
53	0xbd441efc	-0.04788111
54	0x3db97b2b	0.090566956
55	0xbd8239e9	-0.06358702
56	0x3d84f838	0.064926565
57	0xbe2a8155	-0.16650899
58	0x3e53106f	0.20611738
59	0x3ddc9c99	0.10772056
60	0x3da2f9ea	0.079578236
61	0x3d4e2e0c	0.050336882
62	0x3e824803	0.25445566
63	0x3d9ab259	0.07553548

mos_estimator_small_1/dense_4/BiasAdd/ReadVariableOp/resource:0 f4 [64]
0	0xbe650b0f	-0.223675
1	0x3f096dfb	0.5368344
2	0xbe4a9e10	-0.19786859
3	0x3eaf967b	0.34294495
4	0xbf1e7f18	-0.6191268
5	0xbdf18576	-0.11793034
6	0xbe634e2f	-0.22197793
7	0x3d226037	0.03964254
8	0x3f33ab2d	0.7018307
9	0x3f0500ca	0.5195433
10	0x3eca7e1d	0.39549342
11	0xbce0ce23	-0.027442044
12	0xbaeb01dd	-0.0017929632
13	0x3ee954fb	0.45572647
14	0xbe42bbae	-0.19016907
15	0xbe1b69ca	-0.15177074
16	0xbe8b7e1d	-0.27244654
17	0xbecf2c3a	-0.4046343
18	0x3eb4a3f6	0.35281342
19	0x3ead3f63	0.33837423
20	0x3f3f386f	0.74695486
21	0x3e717db1	0.23583104
22	0xbf83c3f4	-1.0294175
23	0x3f2f7ec1	0.68552786
24	0x3f0f9c74	0.56098104
25	0xbf282abf	-0.65690225
26	0x3f2e53c9	0.68096596
27	0xbe0327dd	-0.12808175
28	0xbf5284b9	-0.8223377
29	0xbee13891	-0.4398847
30	0xbe553ef4	-0.20824796
31	0x3f1a92b5	0.6038011
32	0xbe209d74	-0.15685064
33	0xbdec899c	-0.115496844
34	0xbe15fedd	-0.14648004
35	0xbebc98be	-0.36835283
36	0x3f1c26c3	0.60996646
37	0xbee99305	-0.4561998
38	0xbed7e291	-0.42165044
39	0xbe23ca69	-0.15995182
40	0xbed8ef2f	-0.42369983
41	0xbe0da083	-0.13830762
42	0x3f2e687d	0.68128186
43	0xbe7c7199	-0.24652709
44	0xbf21ca6b	-0.6319949
45	0x3ed84d9b	0.42246708
46	0xbe584ce5	-0.21123083
47	0xbdb5615a	-0.08856459
48	0x3f165b82	0.5873338
49	0x3e345878	0.17611873
50	0xbefea80f	-0.49737594
51	0xbde97ae4	-0.11400393
52	0xbe9f56f3	-0.31121024
53	0xbe9a45b6	-0.3013131
54	0xbdd2a0bd	-0.10284565
55	0xbf58732e	-0.8455075
56	0x3f141fcb	0.5786101
57	0xbf817382	-1.0113375
58	0x3f2d16fb	0.6761319
59	0xbe25fbfc	-0.16209406
60	0x3f2c238a	0.6724173
61	0x3e9b87cc	0.30377042
62	0x3f2f9f94	0.6860287
63	0x3f2228f4	0.6334374

mos_estimator_small_1/dense_4/MatMul/ReadVariableOp/resource:0 f4 [64, 64]
0	0x3d8e1c66	0.0693901
1	0x3eb929f6	0.36164826
2	0x3d6b5c29	0.057460938
3	0x3eb8d989	0.36103466
4	0x3e50cef1	0.20391442
5	0xbe59b5a3	-0.21260695
6	0xbe8c3be5	-0.27389446
7	0xbd8a61ba	-0.06756921
8	0x3ce331ff	0.027733801
9	0xbdac4498	-0.08411521
10	0x3d2ef2a8	0.042711884
11	0xbd43e866	-0.047829054
12	0x3e2392ae	0.15973923
13	0x3e96c78f	0.29449126
14	0xbdfd1dae	-0.123591766
15	0xbe7c040c	-0.24610919
16	0xbea59f69	-0.32348183
17	0x3ebe7e4e	0.37205738
18	0x3c7a186f	0.0152646145
19	0xbe1becaa	-0.15226999
20	0xbe56def5	-0.20983489
21	0xbf0fab09	-0.56120354
22	0xbd545498	-0.051838487
23	0x3d93a99b	0.07210084
24	0xbd392c85	-0.045208473
25	0x3dc1191b	0.094286166
26	0x3d8893fb	0.0666885
27	0xbc093a67	-0.008375741
28	0x3bad3826	0.0052862344
29	0xbdc9ba68	-0.09850007
30	0x3da38699	0.07984657
31	0xbea881d5	-0.32911554
32	0x3cb0b7fe	0.02157211
33	0x3e080394	0.13282615
34	0xbe8ab60a	-0.2709201
35	0xbec448a8	-0.38336682
36	0xbe189095	-0.14898904
37	0xbf1b2756	-0.60606897
38	0x3e21a4df	0.1578555
39	0x3da187c4	0.07887223
40	0xbcf2926a	-0.029610831
41	0xbdc25ad6	-0.09489982
42	0xba921242	-0.0011144357
43	0x3ca6b945	0.020352015
44	0xbea208ea	-0.31647426
45	0xbe6ece6d	-0.23320933
46	0xbd36b8fe	-0.044610016
47	0xbe30b477	-0.17256342
48	0x3de78332	0.113043204
49	0xbeed9772	-0.46404606
50	0x3d7f8389	0.0623813
51	0xbe141d1c	-0.1446423
52	0xbe18c0fb	-0.14917366
53	0xbec7ca81	-0.39021686
54	0xbd47d64b	-0.04878835
55	0x3ccb7a22	0.02483851
56	0xbe483187	-0.19550143
57	0x3e12881f	0.14309739
58	0xbe2a99f1	-0.16660286
59	0x3d9dbefa	0.077024415
60	0xbe4253ab	-0.1897723
61	0xbe1c961e	-0.1529164
62	0x3ce4aa7b	0.027913323
63	0x3dcfe139	0.1015038
64	0xbe591751	-0.21200301
65	0x3e3e83d1	0.18604971
66	0x3dbe004f	0.092774026
67	0x3e28a8ca	0.16470638
68	0x3e464a0c	0.19364184
69	0x3d398443	0.04529215
70	0xbe601769	-0.2188393
71	0x3da720aa	0.08160527
72	0x3ab174d8	0.001353885
73	0xbf01829e	-0.5058993
74	0x3e9807a9	0.29693344
75	0x3d4ff1b4	0.050767615
76	0x3ec8e3a2	0.3923617
77	0xbca2a820	-0.019855559
78	0x3f5880b7	0.84571403
79	0xbd0e4c8f	-0.03474098
80	0xbdb4e49b	-0.088326655
81	0xbf29a5eb	-0.66268796
82	0xbebf8b4b	-0.3741096
83	0xbec1a4f1	-0.37821153
84	0x3f237942	0.638569
85	0xbf489030	-0.7834501
86	0xbf280562	-0.65633214
87	0xbdecac0f	-0.11556255
88	0x3cd6a1e7	0.026200248
89	0x3b516191	0.0031949023
90	0xbdfd5e66	-0.12371521
91	0x3e0c4fb4	0.1370228
92	0xbed961ae	-0.42457336
93	0x3e85c25f	0.26124856
94	0x3dcca5af	0.09992539
95	0xbf17f5de	-0.5935954
96	0xbc4871c0	-0.012234151
97	0xbe03c00a	-0.12866226
98	0xbe0bf861	-0.13668968
99	0xbc8e57d5	-0.017375866
100	0xbec0c544	-0.37650502
101	0xbe37b148	-0.17938721
102	0xbe917722	-0.28411204
103	0xba265796	-0.0006345449
104	0xbea861b1	-0.32887033
105	0xbd3dcba6	-0.046336792
106	0x3d2f3bd9	0.042781685
107	0x3c1dbbd0	0.0096272975
108	0xbd92f7f9	-0.07176203
109	0xbf210164	-0.62892747
110	0x3dd15d47	0.10222869
111	0xbdf4eb4a	-0.1195894
112	0x3dc85712	0.09782232
113	0xbe31d20f	-0.17365287
114	0x3d86effa	0.06588741
115	0x3d88b941	0.066759594
116	0xbf4c8593	-0.7989132
117	0xbeb72de2	-0.35777193
118	0x3d46ae68	0.04850617
119	0x3f059bfb	0.5219113
120	0xbcd579f6	-0.026059132
121	0xbf14813c	-0.58009696
122	0x3deeb296	0.11655156
123	0x3e502a7b	0.20328705
124	0xbda42c48	-0.080162585
125	0xbdf16d81	-0.11788464
126	0xbd1cae0c	-0.03825192
127	0x3eb4b75e	0.35296148
128	0xbe5736ac	-0.2101695
129	0xbdfc9773	-0.12333574
130	0xbe39ab60	-0.1813178
131	0xbe3016e5	-0.17196234
132	0x3e8e1122	0.27747446
133	0xbda31e4d	-0.07964764
134	0x3e3ce1e2	0.18445542
135	0xbcc1ec6e	-0.023672309
136	0xbb6b36c3	-0.0035890795
137	0xbee95c8a	-0.45578414
138	0xbca02a6b	-0.019551476
139	0xbcee1369	-0.02906199
140	0xbd51bc8d	-0.051205207
141	0xbec91aef	-0.3927836
142	0xbd0b901a	-0.034072973
143	0xbe0b7af5	-0.13621123
144	0x3d748e04	0.05970575
145	0xbee491ef	-0.44642588
146	0xbf44563b	-0.7669408
147	0xbeb9fdc3	-0.36326417
148	0x3eadc321	0.33937934
149	0xbf2cc626	-0.6748985
150	0x3e40e59c	0.18837589
151	0xbd58dd24	-0.05294527
152	0xbccadc38	-0.024763212
153	0xbde5841e	-0.1120684
154	0xbd6411ac	-0.055680916
155	0xbd227be0	-0.039668918
156	0xbe062f41	-0.13103963
157	0xbe8c4ca8	-0.27402234
158	0xbd7caee4	-0.061690226
159	0xbe42df62	-0.19030526
160	0xbe310e83	-0.17290692
161	0xbd412f51	-0.047164265
162	0xbd8ba32c	-0.06818232
163	0xbdfbd281	-0.1229601
164	0xbf94fc96	-1.1639583
165	0x3c1f727d	0.009731886
166	0xbed79338	-0.42104506
167	0x3d8cb924	0.0687125
168	0xbe2fbc31	-0.17161633
169	0xbe2d90ad	-0.1694972
170	0x3e3e55bb	0.18587391
171	0xbdf4258e	-0.119212255
172	0xbefc2249	-0.49244907
173	0x3d979208	0.074009
174	0x3da61df3	0.08111181
175	0x3db4e8b6	0.088334486
176	0x3e6c2a2d	0.23062964
177	0x3edf5141	0.4361668
178	0xbe4b1c8f	-0.19835113
179	0xbd1aacb7	-0.03776237
180	0xbd68bf95	-0.056823332
181	0x3dd7d04b	0.105377756
182	0xbdd13a56	-0.10216205
183	0x3bceb95b	0.006308717
184	0xbd2a83ff	-0.041629788
185	0x3dd74eb6	0.1051306
186	0x3de76bc1	0.11299849
187	0x3d98bf9e	0.07458423
188	0x3e9270e7	0.28601763
189	0xbf4ab08d	-0.79175645
190	0x3df0ec77	0.11763852
191	0xbdf24161	-0.11828876
192	0x3d33298c	0.043740794
193	0x3ed4ceea	0.41564113
194	0xbe100609	-0.14064802
195	0x3deb06ad	0.11475883
196	0x3e2ed1de	0.17072245
197	0x3d9d1524	0.07670048
198	0xbddfcec5	-0.1092811
199	0xbd4f760f	-0.0506497
200	0xbdb14def	-0.08657443
201	0x3d154d43	0.036450636
202	0x3df26b7b	0.118369065
203	0xbe374d0d	-0.17900486
204	0xbf111dc3	-0.5668604
205	0x3ef63b61	0.48092178
206	0x3cac6f01	0.021049025
207	0x3e615b96	0.22007594
208	0xbe378d0d	-0.179249
209	0xbe826258	-0.25465655
210	0xbdbbd66b	-0.09171756
211	0x3e931a27	0.2873089
212	0x3debd0fa	0.115144685
213	0xbe19344f	-0.1496136
214	0xbeb921b8	-0.36158538
215	0xbe05bd35	-0.13060458
216	0x3e0eb311	0.13935496
217	0xbe91ff56	-0.28515118
218	0xbe3b62de	-0.18299434
219	0xbe5c7baf	-0.21531557
220	0xbeee8d94	-0.4659239
221	0x3d8c4ea3	0.06850936
222	0xbcf258dc	-0.029583387
223	0x3f0630db	0.524183
224	0x3a3bb3b6	0.0007160263
225	0xbe4bee32	-0.19915083
226	0xbecfb2a0	-0.40565968
227	0xbe9afa5f	-0.30269143
228	0xbdd0080f	-0.10157787
229	0xbe9365d3	-0.28788623
230	0x3f05bf33	0.5224487
231	0xbeaa8df2	-0.3331142
232	0x3e1cd957	0.15317284
233	0xbe9bcb1e	-0.30428404
234	0xbe1c0ffd	-0.15240474
235	0x3df19afe	0.117971405
236	0x3eb189d5	0.3467547
237	0xbe84e670	-0.2595706
238	0x3e906200	0.28199768
239	0xbe5ab863	-0.213594
240	0xbe944157	-0.289561
241	0xbdecde60	-0.11565852
242	0xbe122577	-0.14272104
243	0xbe263196	-0.16229853
244	0x3e41b7f6	0.18917832
245	0xbe3bab5a	-0.18327084
246	0xbdbb392b	-0.09141763
247	0xbcd388cd	-0.025822068
248	0xbe80868c	-0.2510265
249	0xbe8ce13b	-0.27515587
250	0x3ca710db	0.02039378
251	0xbe6460ab	-0.22302501
252	0xbc93c232	-0.018036935
253	0x3e9d90c0	0.30774498
254	0xbe27cf93	-0.16387777
255	0xbae52151	-0.0017481243

mos_estimator_small_1/dense_3/BiasAdd/ReadVariableOp/resource:0 f4 [64]
0	0xbec7efa8	-0.3905003
1	0xbdd96846	-0.10615592
2	0x3d80f6b6	0.062970564
3	0x3e82e648	0.25566316
4	0xbd50fb09	-0.051020656
5	0xbe01db37	-0.1268128
6	0xbdf7e787	-0.12104707
7	0x3ee8e498	0.45486903
8	0xbd77416c	-0.060365126
9	0xbf769034	-0.96313787
10	0xbe9d6f8c	-0.30749166
11	0xbdbddab0	-0.09270227
12	0xbd87793b	-0.0661492
13	0xbd8f2023	-0.069885515
14	0x3eabdf9d	0.3356904
15	0x3e1e8be5	0.15483053
16	0xbdbc0d8b	-0.091822706
17	0x3eb6055d	0.35550967
18	0x3da5d220	0.08096719
19	0xbe3bd7c2	-0.18344024
20	0x3efd2bce	0.49447483
21	0x3e9a6f74	0.30163157
22	0xbde01838	-0.10942119
23	0xbd93ec3a	-0.07222791
24	0xbda58d4c	-0.08083591
25	0xbe0f0ab4	-0.13968927
26	0xbb56f7e2	-0.0032801558
27	0x3ee2c3cb	0.44290003
28	0xbe708ded	-0.2349164
29	0x3e7c820f	0.24658988
30	0x3e9e1121	0.30872443
31	0xbda24a57	-0.079243354
32	0xbdd10b04	-0.10207179
33	0xbdc1395d	-0.09434769
34	0xbd9e4ca7	-0.07729464
35	0xbd4d3f3e	-0.05010914
36	0x3e8f4b2b	0.27987036
37	0xbd898251	-0.06714309
38	0xbd928935	-0.071550764
39	0x3e812ef2	0.2523113
40	0xbe0e90df	-0.13922451
41	0xbde42381	-0.11139584
42	0xbd5c71d2	-0.053819485
43	0x3ea9f36d	0.33193532
44	0xbf4f8a91	-0.8107081
45	0xbf09d502	-0.5384065
46	0x3d87ad07	0.06624799
47	0xbde0f1e7	-0.10983639
48	0x3e55828b	0.2085058
49	0xbe2884b5	-0.16456874
50	0x3e905e68	0.28197026
51	0xbf32bd1a	-0.69819796
52	0x3ef3db0a	0.4762805
53	0x3d49b2e3	0.049242865
54	0x3ed0e065	0.407962
55	0xbd92fca0	-0.07177091
56	0x3ebbb864	0.36664116
57	0x3dd846be	0.10560368
58	0x3ef5f1ba	0.48035985
59	0xbe85100f	-0.25988814
60	0x3e780e8a	0.24224296
61	0x3ddd25dc	0.10798237
62	0xbda50b62	-0.08058812
63	0xbe6840f2	-0.22681025

conv2d_9/kernel:0 f4 [64, 32, 3, 3]
0	0x3de19e0b	0.110164724
1	0x3d7bdeaa	0.061491646
2	0x3e0d6f08	0.13811886
3	0xbbfb3d10	-0.0076671913
4	0x3d9e2956	0.07722728
5	0x3de79d04	0.11309245
6	0x3d988755	0.074476875
7	0x3d5e8122	0.05432237
8	0x3cdbf450	0.026849896
9	0x3e80bcd6	0.2514407
10	0x3e7f7bbf	0.24949549
11	0xbddb6e7c	-0.107144326
12	0xbdd14b48	-0.10219437
13	0xbe788d8f	-0.2427275
14	0xbe0ac755	-0.13552602
15	0xbe583f28	-0.21117842
16	0xbe562ee2	-0.20916322
17	0x3c469a8f	0.012121811
18	0xbe5165e9	-0.20449032
19	0xbec8bce3	-0.3920661
20	0xbe0f6b73	-0.14005832
21	0x3e5e94fe	0.21736524
22	0xbd99f1d6	-0.0751683
23	0x3d8efa4c	0.06981334
24	0xbda45abf	-0.08025121
25	0xbe80caf9	-0.25154856
26	0xbec5c3b0	-0.3862586
27	0x3da6b7b7	0.081405096
28	0x3d0c7765	0.03429355
29	0xbe05c3ab	-0.13062923
30	0x3cfbadd7	0.030722542
31	0x3d8f4fd5	0.069976486
32	0xbd10a28b	-0.035311263
33	0xbdf61ea5	-0.12017564
34	0xbda568bb	-0.080766164
35	0xbe0305dd	-0.12795205
36	0xbe2cb88d	-0.16867276
37	0x3d1d01a6	0.03833165
38	0x3da4abb7	0.080405645
39	0x3cce55de	0.025187429
40	0xbdf5a842	-0.11994983
41	0x3c7b26aa	0.015329042
42	0x3e0b29fa	0.13590232
43	0xbd891337	-0.06693118
44	0x3d288b80	0.041148663
45	0xbc6b3419	-0.014355683
46	0xbe01b695	-0.12667306
47	0xbdc1f6d8	-0.0947091
48	0xbea8e8cc	-0.3299011
49	0xbea2f9eb	-0.31831297
50	0xbd7e8832	-0.062141605
51	0xbe9df487	-0.30850622
52	0x3e55c748	0.20876801
53	0xbe895afa	-0.26827222
54	0xbe8b44be	-0.27200884
55	0xbeb20b5a	-0.34774286
56	0xbbfdeba5	-0.0077490383
57	0xbe209edc	-0.156856
58	0xbeacaca1	-0.33725455
59	0x3cf0f4c0	0.02941358
60	0xbeb1d201	-0.34730533
61	0xbea119c4	-0.3146497
62	0xbe64678f	-0.2230513
63	0x3e106b0d	0.14103337
64	0x3e17ff80	0.1484356
65	0x3e35a4fa	0.17738715
66	0x3def19fd	0.11674879
67	0x3deaa06a	0.11456378
68	0xbd6affa4	-0.057372704
69	0x3deb77d1	0.114974625
70	0x3e021dac	0.12706631
71	0xbf222c45	-0.633488
72	0x3d90ba8c	0.07066831
73	0xbe267768	-0.16256487
74	0xbe6192cc	-0.22028655
75	0xbeaaad34	-0.33335268
76	0xbf46907d	-0.7756422
77	0xbeb5f73d	-0.3554019
78	0xbca2b52d	-0.019861782
79	0x3e1ce5b2	0.15321997
80	0xbdb2b671	-0.08726204
81	0x3dc2c8f2	0.095109835
82	0xbe396258	-0.18103921
83	0xbe6572a8	-0.22407019
84	0xbdd9f7ba	-0.10642953
85	0xbdda00e7	-0.10644703
86	0xbe7e0a91	-0.24808718
87	0xbd7de440	-0.061985254
88	0xbe03357f	-0.12813376
89	0xbd72f318	-0.059313864
90	0xbdf19721	-0.11796404
91	0xbe9a7970	-0.30170774
92	0xbe293d7b	-0.16527359
93	0xbf157115	-0.58375674
94	0xbeb395cf	-0.35075232
95	0xbc8cbbcf	-0.017179398
96	0xbebfbde4	-0.37449563
97	0xbd6f0b4a	-0.058360375
98	0xbccc758a	-0.02495839
99	0xbe217121	-0.15765812
100	0xbdee020e	-0.11621486
101	0x3e0c5a08	0.13706219
102	0xbe1e7d77	-0.15477549
103	0xbd04767a	-0.03233955
104	0x3d28a0ab	0.04116885
105	0xbeb79d18	-0.3586204
106	0xbe79a835	-0.24380572
107	0x3e17818d	0.14795513
108	0x3ccbd544	0.024881966
109	0x3df2c179	0.11853308
110	0xbe4024f0	-0.1876409
111	0xbd6dc5f3	-0.058050107
112	0xbd8e32fc	-0.06943318
113	0xbe809668	-0.2511475
114	0xbed6fb9e	-0.41988844
115	0xbd8b8915	-0.06813256
116	0x3e0179a3	0.12644057
117	0xbc8b5f3c	-0.017013185
118	0x3dd2aa06	0.10286336
119	0x3d811e6c	0.06304631
120	0xbe3633cf	-0.17793201
121	0xbdbeeae6	-0.09322147
122	0xbe260517	-0.16212879
123	0xbeabc731	-0.33550408
124	0xbf5c5618	-0.8606887
125	0x3e35e156	0.1776174
126	0xbf05a980	-0.5221176
127	0xbd008fb9	-0.031387065
128	0x3da0e717	0.07856577
129	0x3dc57f51	0.09643424
130	0xbd4fa7cc	-0.050697133
131	0xbd5c2d92	-0.053754397
132	0x3dfd1d4e	0.12359105
133	0xbd6efa89	-0.058344398
134	0xbeb402f8	-0.35158515
135	0x3e35f9b1	0.17771031
136	0x3c5a2b09	0.013315924
137	0xbe1a9d5d	-0.15099092
138	0xbc737dde	-0.014861552
139	0xbe564087	-0.20923053
140	0xbc85deaf	-0.016341535
141	0xbe532705	-0.20620354
142	0x3e0a539c	0.13508457
143	0x3e763763	0.24044566
144	0x3cb70d76	0.022345286
145	0xbd9a64e3	-0.07538774
146	0x3d14c2e1	0.036318664
147	0x3a7ff529	0.000976401
148	0xbd1d110b	-0.03834633
149	0xb835f06f	-4.3377684e-05
150	0xbda58602	-0.080822006
151	0x3ca6bcda	0.020353723
152	0xbda9d588	-0.08292681
153	0xbded9ec6	-0.11602549
154	0xbded920a	-0.1160012
155	0xbe654d02	-0.22392657
156	0xbdee444f	-0.116341226
157	0xbc9a9534	-0.018869974
158	0x3c82fb29	0.015988903
159	0xbe990f96	-0.29894704
160	0xba9119a2	-0.0011070261
161	0xbe850c18	-0.2598579
162	0x3d49f29c	0.049303636
163	0x3dc6eca3	0.097131036
164	0xbdb78523	-0.08960941
165	0x3d986529	0.0744117
166	0xbe230791	-0.15920855
167	0x3d303d3c	0.043027148
168	0xbd29dc11	-0.041469637
169	0xbea398a6	-0.319524
170	0x3c24dc2f	0.0100622615
171	0x3e9912a9	0.2989705
172	0xbd18aab3	-0.037272166
173	0xbe1c7db6	-0.1528233
174	0x3d8e3cb6	0.069451734
175	0xbe9e8198	-0.30958247
176	0xbe1d167a	-0.15340605
177	0xbeaf001e	-0.34179777
178	0xbf32daba	-0.69865
179	0xbdedf33b	-0.11618658
180	0xbf02f17e	-0.5114974
181	0xbde185ea	-0.1101187
182	0x3ca845bd	0.020541066
183	0xbe215fff	-0.15759276
184	0xb904a52a	-0.0001265003
185	0xbd88eec9	-0.0668617
186	0xbc1f2c2e	-0.009715123
187	0xbd386fa8	-0.04502836
188	0xbefe9b75	-0.4972798
189	0xbd38d5f3	-0.045125913
190	0xbd9c79e7	-0.076404385
191	0xbe7f6d6a	-0.24944082
192	0xbc431f4b	-0.011909316
193	0xbe099540	-0.1343584
194	0x3d6e43f3	0.05817027
195	0xbe447765	-0.1918617
196	0x3e12291d	0.14273496
197	0x3deee32d	0.11664424
198	0x3e754059	0.23950328
199	0x3cb29fe7	0.021804763
200	0xbe383368	-0.1798836
201	0xbe46b300	-0.1940422
202	0xbde4ecbf	-0.11177968
203	0x3ddfdf25	0.10931233
204	0xbd647e9c	-0.055784807
205	0xbe2f70ef	-0.17132924
206	0xbe25c34c	-0.16187781
207	0xbd496bed	-0.04917519
208	0xbd224902	-0.039620407
209	0xbe21f497	-0.1581596
210	0x3d79e0d7	0.06100544
211	0xbdc3a35f	-0.09552645
212	0xbe262f41	-0.16228963
213	0xbeb1936a	-0.3468278
214	0xbe61d73c	-0.22054762
215	0xbe6c8677	-0.2309817
216	0xbdce3526	-0.10068731
217	0xbf1f7db6	-0.62301195
218	0xbcdf4eb0	-0.0272592
219	0xbe526cf0	-0.20549369
220	0xbf80d35b	-1.00645
221	0xbdd43391	-0.10361398
222	0x3e0427b1	0.12905766
223	0x3e03ea56	0.12882361
224	0x3e41b70b	0.18917482
225	0xbd17895d	-0.036996234
226	0x3e3af308	0.18256772
227	0x3dc5ecf9	0.096643396
228	0xbeb46524	-0.35233414
229	0xbe4fda6c	-0.20298165
230	0xbe4663f2	-0.19374064
231	0xbd9948f6	-0.07484619
232	0xbf006979	-0.5016094
233	0x3ebbf825	0.36712757
234	0xbd86ee9d	-0.065884806
235	0xbea8528e	-0.32875484
236	0xbea8c560	-0.32963085
237	0x3e4b6dfe	0.19866177
238	0x3d986c65	0.074425496
239	0xbe1cd561	-0.15315773
240	0xbe182de6	-0.14861259
241	0xbea4f940	-0.32221413
242	0x3e65f332	0.22456053
243	0x3d73cdc7	0.059522416
244	0x3dc57f6d	0.09643445
245	0xbd10c016	-0.035339437
246	0x3e09d00f	0.13458274
247	0xbda1289e	-0.07869075
248	0xbe3acad8	-0.18241441
249	0xbdf762b7	-0.12079375
250	0xbe697114	-0.22797042
251	0x3d742734	0.0596077
252	0xbe42e63d	-0.19033141
253	0x3b41a0ea	0.0029545375
254	0x3ce1ce20	0.027564108
255	0x3d408ebc	0.047011122

conv2d_9/bias:0 f4 [64]
0	0x3d2af12f	0.041733917
1	0xbd452956	-0.048135124
2	0xbc4a48bd	-0.012346444
3	0xbd06dccc	-0.032925412
4	0x3e85f690	0.26164675
5	0x3d20f8f1	0.03929991
6	0x3c94b601	0.018153192
7	0x3deacdc0	0.11465025
8	0xbe2c3ac2	-0.1681929
9	0x3de3ffb6	0.11132757
10	0x3e197af7	0.14988314
11	0x3df9f8b8	0.122056425
12	0x3d56888e	0.052376322
13	0x3df769fd	0.120807625
14	0x3e0c69b2	0.13712195
15	0x3d35b533	0.04436226
16	0xbb9db81f	-0.0048132087
17	0xbf02eeaf	-0.5114545
18	0x3ea3f82a	0.32025272
19	0x3d9a2671	0.07526863
20	0x3ceba91a	0.028767157
21	0xbce003e2	-0.027345601
22	0x3e0fdfcd	0.14050217
23	0x3e63c001	0.22241212
24	0x3d0d5bab	0.03451125
25	0x3e88ad7a	0.26694852
26	0xbccefe6f	-0.025267808
27	0x3dd45e93	0.10369601
28	0xbeeb5433	-0.45962676
29	0xbd3ac7a8	-0.045600563
30	0x3f28c101	0.659195
31	0x3e15cc8e	0.14628813
32	0x3dae438e	0.08508979
33	0x3daf68d9	0.0856492
34	0x3e5ccc08	0.21562207
35	0x3d3c8205	0.046022434
36	0x3eb69d1a	0.35666734
37	0xbaf632a8	-0.0018783407
38	0xbdc23029	-0.09481842
39	0x3e93cae1	0.28865722
40	0xbdde01ea	-0.10840209
41	0xbc31ecf9	-0.010859721
42	0x3d9dbd00	0.077020645
43	0x3e011c1c	0.12608379
44	0x3e3b17ab	0.18270747
45	0x3ea2deb0	0.31810522
46	0xbe23997d	-0.1597652
47	0x3cbb2336	0.022843938
48	0xbe83c967	-0.25739595
49	0x3ecb3bd4	0.39694083
50	0x3d0a3c65	0.033749003
51	0x3ebde11b	0.37085804
52	0x3eedb9ff	0.46430966
53	0xbe8ba5be	-0.2727489
54	0x3e04d611	0.12972285
55	0x3ec12d43	0.37729844
56	0xbca858ba	-0.02055012
57	0x3b8d0c3d	0.0043044374
58	0x3eadc80f	0.33941695
59	0xbcf2fd32	-0.029661749
60	0x3e4ec2f5	0.20191558
61	0x3f3a30b4	0.72730565
62	0x3e380dbb	0.17973988
63	0x3e1e30bb	0.15448277

mos_estimator_small_1/dense_3/MatMul/ReadVariableOp/resource:0 f4 [64, 64]
0	0xbe031e39	-0.12804498
1	0xbd8a4055	-0.067505516
2	0xbe6769e3	-0.22598986
3	0xbc1a241a	-0.009408021
4	0x3ad7256d	0.0016414352
5	0xba914d72	-0.0011085703
6	0xbdd9d9b1	-0.106372245
7	0xbe02f2c1	-0.12787916
8	0xbe811392	-0.25210243
9	0x3e35424a	0.17701069
10	0x3e83a6ed	0.25713292
11	0x38d82cef	0.00010308052
12	0xbda8579f	-0.082198374
13	0x3d602b83	0.054728996
14	0x3d830d68	0.063990414
15	0x3e38e0a4	0.18054444
16	0xbe5475b1	-0.2074802
17	0xbce08e0e	-0.027411487
18	0x3e25da33	0.16196518
19	0x3e24a50f	0.1607859
20	0xbcbbad1f	-0.022909699
21	0x3e0ca3c5	0.13734348
22	0x3f096aa6	0.5367836
23	0xbe20b3c2	-0.15693572
24	0xbdbb19d4	-0.09135786
25	0x3b15f6a5	0.0022882607
26	0x3d92aa3c	0.07161376
27	0x3db25e6c	0.08709416
28	0xbdcb28e7	-0.09919911
29	0xbd2b10bb	-0.041764002
30	0x3c9e1cb0	0.019300789
31	0xbe15830e	-0.14600775
32	0xbe42c2de	-0.19019648
33	0xbe0ae7ed	-0.13565035
34	0x3c7fbc11	0.015608803
35	0x3e0e0091	0.13867404
36	0xbd9e0b1d	-0.077169634
37	0xbd8ff4a7	-0.070290856
38	0xbe7c34c6	-0.24629506
39	0x3ce0b73a	0.02743112
40	0x3dfb95e2	0.12284447
41	0xbdf927af	-0.12165772
42	0xbd457ee2	-0.048216708
43	0xbe53556f	-0.20638059
44	0xbd24b282	-0.0402093
45	0xbdb1f46c	-0.08689198
46	0x3d97afd8	0.074065864
47	0xbe588c3f	-0.2114725
48	0x3e88c9c0	0.26716423
49	0xbe402090	-0.18762422
50	0xbce65a77	-0.028119309
51	0xbd0120b1	-0.031525318
52	0x3e3231f9	0.17401876
53	0xbccbebe7	-0.02489276
54	0xbdd0b8f0	-0.10191524
55	0x3cb7f3ef	0.022455184
56	0x3d94f607	0.072734885
57	0xbe26e765	-0.16299208
58	0x3db22f2d	0.08700404
59	0x3e0e8014	0.13916045
60	0xbd3a9a47	-0.045557287
61	0xbc1c9a53	-0.009558278
62	0xbe676141	-0.22595693
63	0x3d6f8657	0.058477726
64	0x3e7f8791	0.24954058
65	0xbf260630	-0.6485319
66	0xbe3b1adc	-0.18271965
67	0x3e51871f	0.20461701
68	0x3e0062e6	0.12537727
69	0x3d019143	0.031632673
70	0xbd15d8c2	-0.03658367
71	0xbe1b6170	-0.15173888
72	0xbdaff09e	-0.08590816
73	0x3bd72bc8	0.0065664984
74	0xbdc58d43	-0.09646084
75	0xbddaaeb3	-0.106778525
76	0xbe627653	-0.2211545
77	0xbe05b687	-0.1305791
78	0xbf0a8281	-0.54105383
79	0xbf748465	-0.9551452
80	0x3d0edc08	0.034877807
81	0xbef8b222	-0.48573405
82	0x3d43b749	0.047782216
83	0xbeb759e2	-0.35810763
84	0xbe0bbc0f	-0.13645957
85	0xbe994ae6	-0.29939955
86	0x3e924456	0.2856776
87	0xbdfb7b0e	-0.1227933
88	0xbd279467	-0.040913012
89	0xbe49bcfb	-0.19700997
90	0x3ec7ec69	0.39047554
91	0xbe6b187b	-0.22958557
92	0xbd6e85bf	-0.05823302
93	0x3dddabe5	0.10823802
94	0xbc933ace	-0.017972376
95	0x3df1a088	0.11798197
96	0xbe68376e	-0.22677395
97	0x3d9319fd	0.07182691
98	0x3de77069	0.113007374
99	0x3e11d1cb	0.14240186
100	0xbe772388	-0.24134648
101	0xbdbcfc79	-0.09227843
102	0xbe4ca4e3	-0.19984774
103	0xbe8d4b5e	-0.27596563
104	0xbe6c9ba3	-0.23106246
105	0xbe4ea120	-0.20178652
106	0xbe1811ff	-0.14850615
107	0x3de06d0d	0.109583
108	0xbeee12bc	-0.46498668
109	0x3eaef264	0.34169304
110	0xbe7b5f78	-0.24548137
111	0x3d747d1e	0.059689634
112	0x3e9ab441	0.30215648
113	0x3da36cfa	0.0797977
114	0xbd82969a	-0.06376381
115	0xbf1cf823	-0.61316127
116	0xbce2e803	-0.027698522
117	0xbe187613	-0.14888792
118	0xbe2acc5a	-0.16679516
119	0x3cd86264	0.026414104
120	0x3d1f7082	0.038925655
121	0x3ddedc08	0.108818114
122	0x3d9e53b6	0.0773081
123	0x3e8f9381	0.28042224
124	0x3e45ec3e	0.193284
125	0xbe87c21f	-0.2651529
126	0xbe2d56e8	-0.16927683
127	0xbe0275e5	-0.12740286
128	0x3e6a5472	0.22883776
129	0x3e1f22f8	0.15540683
130	0x3e861e4b	0.26194987
131	0xbd02458f	-0.031804617
132	0xbd864961	-0.06556965
133	0xbe8f6c05	-0.280121
134	0xbd782f2f	-0.060591873
135	0xbd8a91e2	-0.06766106
136	0xbe832e1b	-0.25621113
137	0xbd7054ed	-0.05867474
138	0x3df93c1a	0.121696666
139	0xbd9d80e4	-0.076905996
140	0x3e065a35	0.13120349
141	0xbd7e5c72	-0.06209988
142	0x3cf70969	0.030155854
143	0xbdca4bab	-0.09877714
144	0x3e03606b	0.1282975
145	0xbe14e237	-0.14539419
146	0x3e56d481	0.20979501
147	0xbe0e9b34	-0.13926393
148	0xbe08ac9d	-0.13347097
149	0x3bddf978	0.0067741238
150	0xbe9cd3c4	-0.30630314
151	0x3ebb80cd	0.36621705
152	0xbd0faf0a	-0.03507904
153	0xbe5043c4	-0.2033835
154	0xbe1ecc44	-0.15507609
155	0x3c4664df	0.0121090105
156	0xbe09c61f	-0.13454483
157	0xbd265079	-0.04060409
158	0xbccfe25f	-0.025376497
159	0xbe127f3f	-0.14306353
160	0x3e009210	0.12555718
161	0xbd586922	-0.052834637
162	0xbe40f0d8	-0.18841875
163	0xbe047344	-0.12934595
164	0x3ee29b54	0.4425913
165	0x3c1133cd	0.008862448
166	0x3df7d700	0.12101555
167	0x3d15444e	0.036442094
168	0xbf2fecd1	-0.6872073
169	0xbdefae0d	-0.117031194
170	0xbe68976f	-0.22714017
171	0xbd97df23	-0.07415607
172	0xbdcbec82	-0.0995722
173	0xbad8a080	-0.0016527325
174	0xbe15123a	-0.14557734
175	0xbe606b26	-0.21915874
176	0xbe28c002	-0.16479495
177	0x3de284ba	0.11060472
178	0xbefa6708	-0.48906732
179	0x3d3903c8	0.04516962
180	0x3b9608a2	0.004578666
181	0xbdf706a6	-0.12061815
182	0x3da2cb11	0.07948888
183	0xbce7ed2d	-0.028311336
184	0xbdb6fda0	-0.08935094
185	0xbe692ed2	-0.22771767
186	0xbd860956	-0.065447494
187	0xbe2bf36d	-0.16792078
188	0xbe8b0c20	-0.27157688
189	0xbdef59ab	-0.11687025
190	0xbe2fa0b9	-0.17151155
191	0x3dd5fdfc	0.10448834
192	0xbd38aa27	-0.045084145
193	0xbe0e9d23	-0.1392713
194	0x3e847b1e	0.2587518
195	0xbe890784	-0.26763546
196	0xbe26bc36	-0.16282734
197	0xbe7ead04	-0.24870688
198	0x3c449430	0.011998221
199	0xbe70e94f	-0.235265
200	0xbe7ad53f	-0.2449541
201	0xbe28ca61	-0.16483451
202	0x3e02a930	0.12759852
203	0x3d789f0d	0.060698558
204	0xbc97db0e	-0.01853707
205	0xbd816719	-0.063184924
206	0xbe0b7c78	-0.136217
207	0xbd2f69c5	-0.04282548
208	0xbdd9097f	-0.10597514
209	0xbca88125	-0.020569393
210	0xbe1322b8	-0.14368713
211	0xbd686f09	-0.056746516
212	0xbd90db15	-0.070730366
213	0xbe3c6ea0	-0.18401575
214	0x3daa85c0	0.08326292
215	0x3e88ad41	0.26694682
216	0xbd2dcd08	-0.04243186
217	0xbe9baa97	-0.30403587
218	0xbe1b5e03	-0.15172581
219	0xbe440cf9	-0.19145574
220	0xbccb92dc	-0.024850301
221	0xbe5f9420	-0.21833849
222	0xbe173ca7	-0.14769231
223	0xbe184023	-0.14868216
224	0xbec932f3	-0.39296684
225	0xbe7476ce	-0.23873445
226	0xbe68b6bb	-0.22725956
227	0xbb7c9dac	-0.0038546128
228	0xbd8feacd	-0.070272066
229	0xbd8127f5	-0.06306449
230	0xbbdc7906	-0.0067282943
231	0x3d202c2d	0.03910463
232	0xbe958811	-0.29205373
233	0xbe88bc1a	-0.2670601
234	0xbe342724	-0.17593056
235	0xbd2bf629	-0.041982803
236	0xbe738a92	-0.23783329
237	0xbf0b77c1	-0.54479605
238	0xbc1020e3	-0.008796903
239	0xba8f5de1	-0.0010938012
240	0xbdda360e	-0.10654841
241	0x3dc734b3	0.097268485
242	0xbd2d7c1c	-0.042354688
243	0xbe991d44	-0.2990514
244	0x3e19b121	0.15008976
245	0xbdd8672d	-0.10566554
246	0xbf185aca	-0.59513533
247	0x3e07b0f8	0.13251102
248	0x3d89484e	0.06703244
249	0xbbfc95f6	-0.0077083064
250	0xbe22c062	-0.158937
251	0x3d956b05	0.07295803
252	0x3d9d440b	0.07678994
253	0xbe942fcf	-0.28942725
254	0xbe43f790	-0.19137406
255	0xbe93b8f0	-0.28852034

conv2d_8/kernel:0 f4 [32, 32, 3, 3]
0	0x3dd3c411	0.10340131
1	0x3c55fabe	0.01306027
2	0xbed534aa	-0.41641742
3	0x3e4ac8ec	0.19803208
4	0xbdcd9d71	-0.10039795
5	0xbe25e075	-0.16198905
6	0xbde20a21	-0.11037088
7	0x3c99d9de	0.018780645
8	0x3e030794	0.1279586
9	0x3e182635	0.14858325
10	0x3cd23985	0.025662193
11	0x3cf78e35	0.030219177
12	0x3e85e250	0.26149225
13	0x3d8734f2	0.066018954
14	0x3e35ca20	0.17752886
15	0x3e825c59	0.2546108
16	0x3de11d25	0.10991887
17	0x3da5ece5	0.08101825
18	0xbc7b6dd6	-0.015346011
19	0x3bbbc750	0.005730547
20	0x3d804ba6	0.06264429
21	0xbe18650a	-0.14882293
22	0x3d4893d0	0.04896909
23	0xbe61f7dc	-0.22067207
24	0xbd57d0cc	-0.05268936
25	0xbc3aa722	-0.011392387
26	0xbddb970f	-0.107221715
27	0x3db88acb	0.09010848
28	0xbc2cf918	-0.010557435
29	0xbc3d244c	-0.011544298
30	0x3df8f9db	0.12157031
31	0xbd5ecbbc	-0.054393515
32	0xbc55daed	-0.013052684
33	0x3d81ac32	0.06331672
34	0x3e42e4a4	0.19032532
35	0x3e7c1a05	0.246193
36	0xbf30720f	-0.6892404
37	0xbe87d537	-0.26529858
38	0xbee10af9	-0.43953684
39	0xbe73ae6b	-0.23797004
40	0xbe83097e	-0.2559318
41	0xbec7722f	-0.38954303
42	0xbcaddd01	-0.021223547
43	0xbc9b8ef7	-0.01898907
44	0xbd052238	-0.032503337
45	0x3de157d4	0.1100308
46	0xbdc49f75	-0.096007265
47	0xbd873c32	-0.06603278
48	0xbdb7098e	-0.08937369
49	0xbd9eb135	-0.07748643
50	0xbdb0012f	-0.08593976
51	0xbedf7aa2	-0.4364825
52	0xbe8e1e48	-0.27757478
53	0xbe40e9f5	-0.18839248
54	0xbd570ed3	-0.05250437
55	0xbedfc716	-0.43706578
56	0xbd6adb5b	-0.0573381
57	0xbcdd485f	-0.027012048
58	0x3deb4ce0	0.11489272
59	0x3e8420fd	0.25806418
60	0xbd83a4ec	-0.06427941
61	0xbca15705	-0.019694814
62	0xbde9e7eb	-0.11421188
63	0xbeb27e13	-0.34861812
64	0xbdc83fea	-0.09777816
65	0xbc14b669	-0.009076693
66	0xbd6f561e	-0.058431737
67	0xba9345f8	-0.0011236062
68	0x3dcfc5a1	0.101451166
69	0xbd112049	-0.03543118
70	0x3e54b1c2	0.20770934
71	0x3b5071c2	0.0031806086
72	0xbe688250	-0.2270596
73	0x3d86d5ab	0.06583723
74	0xbe650926	-0.22366771
75	0xbe9094e6	-0.282386
76	0xbccced8b	-0.025015613
77	0xbe8a2a98	-0.2698562
78	0xbe29b1ff	-0.16571806
79	0xbd75cb6e	-0.06000846
80	0xbeb1b9b7	-0.34712002
81	0x3daca069	0.08429033
82	0x3e31733c	0.17329115
83	0x3e8aaaff	0.27083585
84	0xbe099685	-0.13436325
85	0xbdf00baa	-0.11720975
86	0xbe06bb24	-0.13157326
87	0xbe474d4d	-0.19463082
88	0xbe4c839c	-0.1997208
89	0xbe8c42cf	-0.2739472
90	0x3e1d3fe2	0.153564
91	0x3e843ec8	0.25829148
92	0x3e65d512	0.22444561
93	0x3e3eb5a3	0.18623976
94	0x3e213f28	0.15746748
95	0x3c316983	0.010828379
96	0xbc0bab6d	-0.008524758
97	0x3db944d6	0.090463325
98	0x3e07a760	0.13247442
99	0xbe9dd294	-0.3082472
100	0xbe4c3ccb	-0.19945066
101	0xbcfb9438	-0.030710325
102	0xbee9eda1	-0.4568911
103	0xbe13dde6	-0.14440116
104	0xbddcc68e	-0.10780059
105	0x3d377a5f	0.044794437
106	0xbe22f998	-0.15915525
107	0xbd79a671	-0.060949747
108	0x3d752fdf	0.059860107
109	0x3d35e3bf	0.04440665
110	0xbe045eb2	-0.12926748
111	0x3d8dc696	0.06922643
112	0xbc2bb9a5	-0.010481273
113	0xbdebb4f1	-0.11509121
114	0x3daf7176	0.08566563
115	0xbdd07b33	-0.101797484
116	0xbd4a2ed9	-0.049361084
117	0x3d9cda6b	0.076588474
118	0x3ba06199	0.004894447
119	0x3e7b7966	0.24558029
120	0x3ddeefd3	0.108855866
121	0xbdbbde1e	-0.09173225
122	0x3e0287bb	0.1274709
123	0xbd41e1c9	-0.047334466
124	0xbcec4ba6	-0.028844666
125	0xbd5b875e	-0.053595893
126	0x3e1b2dc6	0.1515418
127	0x3d97cc80	0.07412052
128	0xbdfbcde6	-0.122951314
129	0x3d6eb58e	0.058278613
130	0xbd0f00c9	-0.03491286
131	0xbd5e4796	-0.05426749
132	0x3da9911e	0.08279632
133	0xbe4c7c5c	-0.19969314
134	0xbe927ba6	-0.2860996
135	0xbd9bb844	-0.07603505
136	0x3df55dba	0.119807675
137	0x3c2d9370	0.010594234
138	0x3cf94e4e	0.030432846
139	0x3d9a9bd9	0.07549257
140	0xbd8e38d2	-0.06944431
141	0x3cdea2db	0.027177265
142	0xbcc23204	-0.02370549
143	0xbe3abce1	-0.18236114
144	0xbeacdc3d	-0.33761778
145	0xbe4cea56	-0.20011267
146	0xbd9fab1d	-0.07796309
147	0x3d7d8d9d	0.06190263
148	0x3e4b6803	0.19863896
149	0x3e55ec6a	0.20890966
150	0x3dc996e6	0.09843235
151	0x3e59105a	0.21197644
152	0x3dc5d8f1	0.09660519
153	0x3e1b29aa	0.15152612
154	0x3e9107e2	0.28326327
155	0x3e5e2b86	0.2169629
156	0x3db2d3a4	0.087317735
157	0x3e0bc758	0.13650262
158	0x3e5e7e87	0.21727954
159	0xbda9604a	-0.08270319
160	0xbd544581	-0.051824097
161	0x3d1341a5	0.035951275
162	0x3f0bb184	0.5456774
163	0x3e46f429	0.19429077
164	0x3d2f92c2	0.04286457
165	0x3ee831a7	0.45350382
166	0x3e8dcf2f	0.2769713
167	0x3dd99ab6	0.10625212
168	0x3eae400d	0.34033242
169	0x3dce49b9	0.10072655
170	0xbe32c9f7	-0.17459856
171	0xbcdffdcb	-0.027342698
172	0xbe16a5e1	-0.14711715
173	0xbed636a8	-0.41838574
174	0x3ded3268	0.1158188
175	0xbdb3dba5	-0.08782128
176	0x3d9043aa	0.07044156
177	0xbe3e6cca	-0.18596187
178	0x3dfffe88	0.1249972
179	0x3e49d377	0.19709574
180	0xbe918b73	-0.28426704
181	0xbe8c69e4	-0.27424538
182	0xbe130a33	-0.1435936
183	0xbe2134f3	-0.15742855
184	0x3a08aca6	0.0005213715
185	0xb8374ce8	-4.3702225e-05
186	0x3e07a76d	0.13247462
187	0xbbdf640b	-0.006817346
188	0x3e5d420a	0.21607223
189	0x3def3459	0.116799064
190	0xbd504472	-0.050846525
191	0xbe0a57d7	-0.1351007
192	0x3e9659ef	0.2936549
193	0xbdf4a868	-0.119461834
194	0xbd888039	-0.066650815
195	0x3cb0a1f4	0.0215616
196	0xbc833cb3	-0.016020155
197	0xbd18d43a	-0.03731177
198	0xbdf7425f	-0.12073206
199	0x3dbc0a41	0.09181643
200	0xbd6faf23	-0.058516633
201	0x3e01790f	0.12643836
202	0xbd97e91c	-0.07417509
203	0x3c872cec	0.016500913
204	0xbee9b81d	-0.4564828
205	0xbea7c043	-0.32763872
206	0xbd873e0a	-0.0660363
207	0xbdea6e1e	-0.114467844
208	0x3c30c544	0.010789219
209	0x3d2facda	0.042889453
210	0xbe2e576c	-0.17025536
211	0xbd69739a	-0.056995012
212	0x3d92726a	0.07150729
213	0xbe9905af	-0.2988715
214	0xbd80647a	-0.062691644
215	0x3e41dcb7	0.18931852
216	0xbd87432e	-0.066046104
217	0xbd8df0ab	-0.069306694
218	0xbed70f07	-0.42003652
219	0xbecb1ee9	-0.3967202
220	0xbeeb0055	-0.4589869
221	0xbf49e79f	-0.7886905
222	0xbda051db	-0.07828113
223	0x3dad9622	0.08475901
224	0xbe462c49	-0.19352831
225	0x3d501723	0.050803315
226	0xbdcb3860	-0.09922862
227	0x3e5e2651	0.21694304
228	0x3e4b37f9	0.1984557
229	0xbbce8908	-0.0063029565
230	0x3ea8c61e	0.3296365
231	0x3dbed38a	0.093176916
232	0xbe26d1e2	-0.16291001
233	0x3cc831b9	0.024437772
234	0x3d911e56	0.07085864
235	0x3e2115d3	0.15730982
236	0x3da1a346	0.0789247
237	0xbe0922e8	-0.13392222
238	0xbcf0897e	-0.029362436
239	0xbdef47c3	-0.11683609
240	0x3b84b4d6	0.0040498776
241	0x3e7dbd8a	0.24779335
242	0xbdfcc91b	-0.12343045
243	0xbc9298ee	-0.017895188
244	0x3d54fe59	0.052000377
245	0xbd351d3b	-0.04421733
246	0xbd8a39d1	-0.06749309
247	0x3cecc14f	0.02890077
248	0xbd1e12ed	-0.038592268
249	0x3dd14f06	0.10220151
250	0x3e204d99	0.15654601
251	0x3e200f36	0.15630803
252	0x3b62c505	0.0034602296
253	0x3c9110c7	0.017708195
254	0x3de67d4f	0.112543695
255	0xbd6296c3	-0.05531956

conv2d_8/bias:0 f4 [32]
0	0xbc11b246	-0.008892601
1	0x3e0e17dc	0.13876289
2	0x3e8df83e	0.27728456
3	0xbd9a0fd1	-0.07522548
4	0xbe5b1d26	-0.21397838
5	0xbdd6e362	-0.104925886
6	0x3e2894b2	0.16462973
7	0x3ef68300	0.4814682
8	0xbc999ff1	-0.018753024
9	0x3e173bcf	0.14768909
10	0xbcfcc7a7	-0.03085692
11	0x3ec0c1d1	0.3764787
12	0xbe809d46	-0.2511999
13	0x3e65bdc5	0.22435673
14	0x3e56e33a	0.20985118
15	0xbe4ed3cd	-0.20197983
16	0xbdf008ab	-0.11720403
17	0x3dfc28c5	0.12312464
18	0x3e89f865	0.26947322
19	0x3e8b4f0a	0.2720874
20	0xbe5440e1	-0.20727874
21	0x3e8fb3b9	0.28066805
22	0x3e1374ae	0.14399979
23	0xbe8e1d50	-0.2775674
24	0x3dee14ba	0.11625047
25	0x3e91676c	0.28399217
26	0x3d86d0cc	0.065827936
27	0xbb820c3c	-0.0039687436
28	0x3f0d3751	0.5516253
29	0x3eaa348a	0.3324321
30	0x3d8d4331	0.06897581
31	0x3e379439	0.17927636

conv2d_7/kernel:0 f4 [32, 32, 3, 3]
0	0xbe31b4f0	-0.17354178
1	0x3dfd24b7	0.123605184
2	0xbe84aac8	-0.25911546
3	0xbe08ad77	-0.13347422
4	0x3e6a704b	0.22894399
5	0xbeeded22	-0.4646998
6	0xbe32b53a	-0.17451945
7	0x3e6db132	0.23212126
8	0xbe0b1c59	-0.13585033
9	0xbde88d29	-0.11355049
10	0xbe404052	-0.18774536
11	0x3dd353c2	0.1031871
12	0xbde9d388	-0.114172995
13	0xbe591077	-0.21197687
14	0x3cb91d83	0.02259708
15	0x3e939cc6	0.28830546
16	0xbd3f904d	-0.046768475
17	0x3dc4bf17	0.0960676
18	0x3ddd2a99	0.107991405
19	0x3c4c53d6	0.01247116
20	0x3d461e76	0.048368894
21	0xbd71ac43	-0.059002172
22	0xbe07cd65	-0.13261946
23	0xbe55f449	-0.20893969
24	0xbf1cf394	-0.6130917
25	0xbec86a65	-0.39143673
26	0xbdf8500b	-0.12124642
27	0xbe9854c9	-0.29752186
28	0x3e134b23	0.14384131
29	0xbe459243	-0.19294076
30	0xbe8d2f5b	-0.27575192
31	0x3c9830cf	0.018577961
32	0xbe6db6ae	-0.23214218
33	0xbe95bd8e	-0.2924618
34	0x3e38ecd3	0.18059091
35	0x3d317538	0.04332468
36	0xbd7512ff	-0.05983257
37	0xbe1bcc42	-0.15214637
38	0x3df04d28	0.117334664
39	0x3d6f4afa	0.058421113
40	0xbd2b7900	-0.04186344
41	0x3b7f37e8	0.0038943235
42	0xbda66608	-0.0812493
43	0xbcc564db	-0.024095943
44	0xbec6aba0	-0.38802814
45	0x3dbf9bac	0.09355864
46	0x3e2552e6	0.16144904
47	0x3e8d15a0	0.2755556
48	0x3e17b189	0.14813818
49	0x3daf9c71	0.08574761
50	0x3e45db1e	0.19321868
51	0x3d254935	0.04035302
52	0x3c1955eb	0.009358863
53	0x3dfb6a95	0.12276188
54	0xbc5ff375	-0.0136688845
55	0xbe271c36	-0.16319355
56	0xbc49a212	-0.012306707
57	0xbca7af1c	-0.02046924
58	0x3ca80143	0.020508414
59	0x3d64411d	0.05572616
60	0x3e3a5f21	0.18200351
61	0x3e36ad05	0.17839439
62	0x3e52cbfe	0.2058563
63	0x3c5a822d	0.0133367
64	0x3dcc1016	0.09964006
65	0xbebdfb07	-0.3710558
66	0xbe7d2411	-0.2472079
67	0x3e84814e	0.25879902
68	0x3d31ab91	0.04337651
69	0xbc839e98	-0.016066834
70	0x3e91a563	0.28446493
71	0x3ed7b45f	0.421298
72	0xbd8638e6	-0.06553821
73	0xbe496b42	-0.19669822
74	0x3db4bcf3	0.08825102
75	0xbd2d8a7f	-0.04236841
76	0x3e5bb3cd	0.21455307
77	0x3f124177	0.5713114
78	0xbe116fa0	-0.14202738
79	0x3df1253e	0.117746815
80	0xbe1a8c96	-0.15092692
81	0xbdb60d24	-0.08889225
82	0xbe28143e	-0.16413972
83	0xbe953252	-0.29139954
84	0x3c22a928	0.009928025
85	0xbe7945d9	-0.24343051
86	0xbcbacaad	-0.022801721
87	0x3b289f08	0.0025729556
88	0xbf8b0ec8	-1.0863886
89	0xbfa4c8a0	-1.2873726
90	0x3e9455e1	0.2897177
91	0x3cd601a0	0.026123822
92	0x3dabdc16	0.083915874
93	0x3e120a82	0.14261821
94	0xbd057c4b	-0.032589238
95	0x3de69c95	0.112603344
96	0x3ed26e35	0.41099706
97	0x3dcb814e	0.09936772
98	0x3e99dbd6	0.30050534
99	0xbe08fd46	-0.13377866
100	0x3d2d3018	0.042282194
101	0x3d29168a	0.04128126
102	0xbcdd45af	-0.027010767
103	0xbdfb8420	-0.1228106
104	0xbe8ff9b9	-0.2812021
105	0xbd91e33e	-0.07123421
106	0xbd8f2729	-0.06989891
107	0xbf0c5a19	-0.5482498
108	0xbebbe4c1	-0.36697963
109	0x3e56aabf	0.20963572
110	0xbe5143ba	-0.20435992
111	0xbdcf5ea6	-0.10125475
112	0x3e1c502c	0.15264958
113	0x3e22a27d	0.15882297
114	0xbf22a665	-0.6353515
115	0x3e62c538	0.22145545
116	0x3d84852d	0.06470714
117	0x3befd293	0.0073188036
118	0xbe72761a	-0.23677865
119	0xbee79e0e	-0.45237774
120	0x3df039a1	0.11729742
121	0x3c67437c	0.014115211
122	0xbe989045	-0.2979757
123	0x3e6f1b4a	0.23350254
124	0x3d2b45c9	0.0418146
125	0xbf15ed89	-0.58565575
126	0xbf0f0229	-0.5586267
127	0x3dc33a6b	0.09532627
128	0xbdd2608b	-0.1027232
129	0xbf2457f0	-0.6419668
130	0x3df8b0e1	0.12143112
131	0x3d22d1f3	0.039751004
132	0xbf24e503	-0.64411944
133	0x3cbc4fe8	0.022987321
134	0x3d8fdd94	0.070246845
135	0xbe4a247d	-0.19740482
136	0x3d9bdae5	0.0761011
137	0xbe5c1ccb	-0.21495359
138	0xbe4d51b8	-0.20050704
139	0xbb5d2fae	-0.0033750343
140	0xbe1ed36c	-0.15510339
141	0xbe8e973e	-0.27849764
142	0xbc94cde8	-0.01816459
143	0xbe94b28c	-0.2904247
144	0x3dab3dd6	0.08361404
145	0x3e87f96e	0.26557487
146	0x3e23fde3	0.16014819
147	0xbebdf5bd	-0.37101546
148	0xbe953f5a	-0.29149896
149	0x3e06bea0	0.13158655
150	0xbdc8d7fc	-0.09806821
151	0xbd302f63	-0.04301394
152	0x3e800a7b	0.25007996
153	0xbde38c9a	-0.11110802
154	0xbda82bd8	-0.082114875
155	0x3ec2f914	0.38080657
156	0xbd8c56bb	-0.0685248
157	0xbd4eda87	-0.050501373
158	0x3dfd23f8	0.12360376
159	0xbd656f0c	-0.056014106
160	0xbeab1ef2	-0.33422047
161	0x3e5132e0	0.20429564
162	0xbf34242d	-0.703677
163	0xbf324337	-0.6963381
164	0xbee144ba	-0.43997747
165	0xbee74faf	-0.4517798
166	0xbf48cdb2	-0.78438866
167	0xbe79bda8	-0.24388754
168	0x3d7c6ca0	0.06162703
169	0xbe01b017	-0.12664829
170	0xbe47583a	-0.1946725
171	0x3bda9152	0.0066701556
172	0x3e704c61	0.23466636
173	0x3e777d64	0.24168926
174	0xbd461fc7	-0.04837015
175	0xbd8ab12c	-0.06772074
176	0x3db5c2a0	0.088750124
177	0xbeca18c1	-0.3947201
178	0xbd3acb35	-0.04560395
179	0xbe5b9ca6	-0.21446475
180	0xbdc64583	-0.09681227
181	0xbd1e402f	-0.03863543
182	0xbe4d4055	-0.20044072
183	0x3e06e37f	0.1317272
184	0xbca9305b	-0.02065294
185	0xbe3f98ee	-0.18710682
186	0x3c72a323	0.014809403
187	0x3e42dae7	0.19028817
188	0xbf3b3b05	-0.7313693
189	0x3c2725b2	0.010201858
190	0xbe0a6cdc	-0.13518089
191	0x3d6b00fe	0.057373993
192	0xbb9f8a7a	-0.0048688026
193	0x3d1e1a66	0.038599394
194	0x3d962f3c	0.07333228
195	0x3e6245d3	0.22096948
196	0xbcafe01c	-0.021469168
197	0x3e88bc35	0.2670609
198	0x3cbd09b6	0.02307592
199	0x3d0c130d	0.034197856
200	0xbd438df7	-0.04774281
201	0xbd53ef1e	-0.05174171
202	0x3b789973	0.003793326
203	0xbe7da1ca	-0.24768749
204	0xbe62dc02	-0.22154239
205	0xbe30e3e7	-0.17274438
206	0xbe59f818	-0.21286047
207	0x3e0792bf	0.13239573
208	0xbc63dc9b	-0.013907577
209	0xbee406f8	-0.44536567
210	0x3d0fe373	0.03512902
211	0xbe88c580	-0.2671318
212	0xbf1c6a4a	-0.61099684
213	0xbe20112a	-0.15631548
214	0xbe910c0e	-0.2832951
215	0xbf95f1c6	-1.1714408
216	0xbe340afe	-0.17582318
217	0x3c044f67	0.008075572
218	0xbce6fc01	-0.028196337
219	0xbe47dbd2	-0.19517449
220	0xbd0a8b97	-0.03382453
221	0xbca2ac0e	-0.019857433
222	0xbe6e64ed	-0.23280688
223	0xbd56a565	-0.052403826
224	0xbcb778f5	-0.022396544
225	0x3dfaf07f	0.12252902
226	0xbc808535	-0.015688518
227	0x3d57ffa5	0.052734036
228	0xbdbed9ec	-0.09318909
229	0xbdad9494	-0.08475605
230	0xbdf6c7a6	-0.12049799
231	0xbe0e73ef	-0.13911413
232	0xbe73e32d	-0.2381713
233	0xbd514165	-0.051087756
234	0x3d1807ac	0.03711669
235	0xbd2b5824	-0.041832104
236	0x3d1ff7e0	0.03905475
237	0xbcbb3df6	-0.022856694
238	0x3d1a15a6	0.0376183
239	0x3db5d215	0.088779606
240	0x3e2509d7	0.16117035
241	0xbc24e3eb	-0.0100641055
242	0xbe4d57cb	-0.20053022
243	0xbe738a59	-0.23783244
244	0xbc16b823	-0.009199175
245	0x3e13fddd	0.1445231
246	0xbe403da6	-0.18773517
247	0x3d26dd66	0.040738486
248	0x3e132bdb	0.14372198
249	0x3cd92f7a	0.026511896
250	0xbd906da9	-0.07052166
251	0x3ce1e606	0.027575504
252	0x3dc190a0	0.09451413
253	0xbd8610cf	-0.06546175
254	0x3d58c551	0.05292255
255	0x3e8427e5	0.25811687

conv2d_7/bias:0 f4 [32]
0	0xbde5fc00	-0.11229706
1	0x3e5631a2	0.20917371
2	0x3e60402c	0.2189948
3	0x3eaba7e9	0.33526543
4	0x3d82d4bc	0.06388232
5	0x3cad4547	0.021151198
6	0x3e3209b9	0.17386521
7	0x3d0b7bfa	0.03405378
8	0x3ccd3629	0.02505024
9	0x3ca3f40d	0.020013833
10	0x3ec2fa99	0.38081816
11	0xbda43c25	-0.08019284
12	0x3d8fa961	0.07014728
13	0xbdac83c3	-0.08423569
14	0x3d39c79e	0.045356385
15	0xbde4252a	-0.11139901
16	0x3e67a5e5	0.22621877
17	0xbb7f5d2a	-0.0038965442
18	0x3e341e36	0.1758965
19	0xbf244731	-0.6417113
20	0xb9c25534	-0.00037066045
21	0x3e8b2f91	0.27184728
22	0xbec97114	-0.39344084
23	0x3e81b19b	0.25330815
24	0xbe91d62e	-0.2848372
25	0x3d2d47b8	0.042304724
26	0xbe9fe6b4	-0.312307
27	0x3eca7044	0.39538777
28	0x3e9fe6c2	0.31230742
29	0x3e1c2bf9	0.15251149
30	0x3e60a54b	0.21938054
31	0xbde83871	-0.1133889

conv2d_6/kernel:0 f4 [32, 32, 3, 3]
0	0xbf1c0cd9	-0.60957104
1	0xb9b7d2a0	-0.00035061408
2	0x3e90fd10	0.2831807
3	0xbeeffacf	-0.4687104
4	0xbd6ecc10	-0.058300078
5	0x3e12d9f5	0.14340957
6	0xbe075704	-0.13216788
7	0xbe1db745	-0.15401943
8	0x3d5b89df	0.05359828
9	0x3d42932d	0.04750364
10	0xbf54ddc2	-0.83150876
11	0xbe1480f1	-0.14502312
12	0x3de66f8b	0.11251744
13	0xbe413c38	-0.18870628
14	0xbe14585a	-0.14486828
15	0xbd370c9c	-0.04468976
16	0x3e2a946b	0.1665818
17	0x3d90a359	0.07062406
18	0x3d323b83	0.043513786
19	0xbd59af38	-0.053145617
20	0x3d44479a	0.047919847
21	0x3dc17f3a	0.09448095
22	0xbe01a556	-0.12660727
23	0x3c9d999a	0.019238282
24	0x3ddf0049	0.10888726
25	0xbe528652	-0.20559052
26	0xbc83bc03	-0.016080862
27	0x3d1fb05f	0.03898656
28	0x3d9b44cc	0.07581481
29	0xbdbf120f	-0.09329616
30	0xbdb914fa	-0.09037204
31	0x3d1fb8b8	0.03899452
32	0xbd67a30c	-0.056551978
33	0xbd345377	-0.04402491
34	0x3d16edb3	0.03684778
35	0xbd34ef68	-0.044173628
36	0x3e893fd7	0.26806518
37	0xbe1a07f0	-0.1504209
38	0x3e31b626	0.1735464
39	0x3da5960c	0.0808526
40	0xbe8b93f7	-0.27261326
41	0x3dce5081	0.10073949
42	0x3e7682f0	0.24073386
43	0xbe517089	-0.20453085
44	0x3c5a192c	0.0133116655
45	0xbd658479	-0.05603454
46	0x3c885506	0.016642105
47	0xbf625f6e	-0.88426864
48	0xbd9eabd6	-0.07747619
49	0x3e636ed0	0.2221024
50	0xbf29e866	-0.66370237
51	0xbe9420ae	-0.28931183
52	0x3e1987c1	0.14993192
53	0xbeb45c78	-0.35226798
54	0xbd733fd3	-0.05938704
55	0xbd54d121	-0.051957253
56	0x3e994821	0.29937842
57	0x3dd01654	0.10160509
58	0xbd7f0406	-0.062259696
59	0x3d15a125	0.036530633
60	0x3db8508b	0.08999737
61	0x3d801f39	0.06255955
62	0xbea2ddcf	-0.31809852
63	0x3e49f055	0.19720586
64	0x3e14b214	0.14521056
65	0x3da59918	0.08085841
66	0x3de4d6d1	0.111737855
67	0x3d76f2ab	0.06029002
68	0x3cee72d4	0.029107489
69	0x3e41bb96	0.18919215
70	0xbca921f8	-0.02064608
71	0x3db1d16b	0.086825214
72	0xbe8368b0	-0.25665808
73	0xbee05819	-0.43817213
74	0xbc0b8efc	-0.008517977
75	0xbdf2145f	-0.11820292
76	0xbe8dd52c	-0.277017
77	0xbd505ee5	-0.05087175
78	0x3d505edb	0.05087171
79	0x3cd4503b	0.025917163
80	0xbebb88a6	-0.36627692
81	0x3e36e925	0.17862375
82	0xbd8bb85c	-0.06822273
83	0x3d4ffeb6	0.05078002
84	0x3e531ed5	0.2061723
85	0x3d814301	0.06311608
86	0x3dd38c9f	0.10329556
87	0x3e1734be	0.14766213
88	0x3d0ca01c	0.03433238
89	0xbc1b10db	-0.009464468
90	0x3dfb254f	0.122629754
91	0xbf48ab8b	-0.78386754
92	0x3e93638f	0.28786895
93	0x3eda79cc	0.4267105
94	0xbf572d80	-0.840538
95	0x3efd2cf9	0.49448374
96	0x3e2416c4	0.1602431
97	0xbf410c51	-0.7540942
98	0x3d8f6a36	0.0700268
99	0x3d4759ea	0.048669733
100	0xbe6a485a	-0.22879162
101	0x3e057df1	0.13036324
102	0x3c8673ee	0.016412701
103	0xbe4d5d38	-0.20055091
104	0xbd036b16	-0.032084547
105	0x3e66b05a	0.2252821
106	0xbe9a1970	-0.30097532
107	0x3cdfd210	0.027321845
108	0xbf149079	-0.5803295
109	0xbe825c9c	-0.2546128
110	0xbe9a8b79	-0.30184534
111	0xbdfd2ade	-0.12361692
112	0xbda29fe4	-0.07940653
113	0xbec3934d	-0.3819832
114	0xbe4f2236	-0.20227894
115	0x3e0d5ac1	0.13804151
116	0xbeabd85f	-0.33563516
117	0xbf0d230d	-0.5513161
118	0xbe61d469	-0.22053684
119	0xbce63b9e	-0.0281046
120	0xbedcea35	-0.43147436
121	0xbd2fcd35	-0.04292031
122	0xbe95f55e	-0.29288763
123	0xbea1a67e	-0.31572336
124	0x3d8c428a	0.06848629
125	0xbdc1b111	-0.09457601
126	0xbe828423	-0.25491437
127	0x3e356b54	0.17716724
128	0xc006b3db	-2.1047275
129	0xbe9ccf54	-0.3062693
130	0xbe1829b5	-0.1485966
131	0xbff9c5fb	-1.9513544
132	0xbe9aa446	-0.30203456
133	0x3e81ea61	0.2537413
134	0xbf904b6b	-1.1273016
135	0x3ddce06e	0.10784994
136	0x3e760cce	0.24028322
137	0xbf0c018a	-0.5468985
138	0x3df35c06	0.118827865
139	0x3d2bf484	0.041981235
140	0xbf0199b5	-0.50625163
141	0xbe847bdc	-0.25875747
142	0xbcf7eb29	-0.0302635
143	0xbf288cad	-0.65839654
144	0x3d24b0dc	0.04020773
145	0x3d56440e	0.052310996
146	0x3def0b6e	0.11672102
147	0xbcee449e	-0.029085454
148	0x3e31783d	0.17331024
149	0x3c0e9f70	0.008705005
150	0xbd102a51	-0.035196606
151	0xbc9d2fa5	-0.019187758
152	0xbd2f11ab	-0.04274146
153	0x3cb56822	0.022144381
154	0x3d88f47a	0.06687255
155	0xbe2d830c	-0.16944522
156	0xbd0b37b4	-0.03398867
157	0xbdccbe71	-0.09997261
158	0xbe1065c9	-0.14101328
159	0xbd8ace9c	-0.06777689
160	0xbe1fcee1	-0.15606262
161	0xbe62be06	-0.221428
162	0xbf53e746	-0.8277477
163	0xbeb82146	-0.35962886
164	0xbf87e387	-1.0616311
165	0xbea46762	-0.32110125
166	0xbd89a6f0	-0.06721294
167	0xc002da5a	-2.0445771
168	0x3c8740fd	0.016510481
169	0x3da9ee93	0.082974575
170	0xbfebf575	-1.8434283
171	0xbeb9f456	-0.36319226
172	0xbdfb45b4	-0.12269154
173	0xbe1b636d	-0.15174647
174	0xbeac9aff	-0.33712003
175	0xbd851b17	-0.064993076
176	0xbe8e0aac	-0.27742517
177	0xbe7d41b4	-0.24732095
178	0x3dffd669	0.12492067
179	0x3d09e4e8	0.033665568
180	0xbe0aa2f5	-0.13538726
181	0x3d071ce6	0.032986544
182	0xbd106cce	-0.035260014
183	0xbd2758b7	-0.04085609
184	0x3d961180	0.073275566
185	0xbf11c750	-0.5694475
186	0x3c3f3a9d	0.011671689
187	0xbd1f5d81	-0.03890753
188	0xbf3db5c3	-0.7410547
189	0x3db709c8	0.089374125
190	0xbdd3afeb	-0.10336288
191	0x3dc4bb66	0.09606056
192	0xbc9290b9	-0.017891275
193	0xbd8bc347	-0.068243556
194	0x3d6f514c	0.05842714
195	0x3b5dc6df	0.003384046
196	0x3e1e0d18	0.15434682
197	0x3e01c690	0.12673402
198	0xbe517d9d	-0.20458074
199	0x3e9958d8	0.29950595
200	0x3dbc4110	0.09192097
201	0xbe67374a	-0.22579685
202	0x3e258bd7	0.16166626
203	0x3d2abc8e	0.041683726
204	0xbeb16185	-0.34644714
205	0xbda0b500	-0.07847023
206	0xbe05b4e9	-0.13057293
207	0xbeed88e8	-0.46393514
208	0x3e03f0b4	0.1288479
209	0xbfd5f448	-1.6715174
210	0xbe828b94	-0.25497115
211	0x3d8c318c	0.06845388
212	0xbffe5704	-1.9870305
213	0xbea310a5	-0.31848636
214	0x3e251acb	0.16123502
215	0xbfac1d12	-1.3446372
216	0xbebe12ee	-0.37123817
217	0xbeeee0c5	-0.4665586
218	0xbe458873	-0.19290332
219	0xbd4eba4e	-0.050470643
220	0xbd5b02f1	-0.053469602
221	0x3d5a3345	0.05327155
222	0x3dccc52c	0.09998545
223	0x3dee1a6f	0.116261356
224	0xbd81e433	-0.06342354
225	0xbdbc53e9	-0.09195692
226	0x3d3ab20b	0.04557995
227	0xbe964910	-0.29352617
228	0xbe2fc511	-0.17165019
229	0x3d5e0345	0.054202337
230	0xbe697ca7	-0.22801457
231	0xbe3b6351	-0.18299605
232	0x3b3c8dd8	0.002877107
233	0xbea9d395	-0.33169237
234	0xbf046a2a	-0.51724494
235	0xbd1f7c1f	-0.03893673
236	0xbfee1ed4	-1.8603158
237	0xbed38f09	-0.41320065
238	0x3d9c9d85	0.07647232
239	0xbfc12c8b	-1.5091718
240	0xbe869999	-0.2628906
241	0x3da8aaf9	0.082357354
242	0xbf936947	-1.1516503
243	0xbe8e58fc	-0.27802265
244	0xbea78edf	-0.3272619
245	0xbeb5b0a1	-0.3548632
246	0x3ca5e645	0.020251403
247	0xbe1c6091	-0.15271212
248	0x3d844778	0.06458944
249	0xbdc036ee	-0.09385477
250	0xbd3149fa	-0.04328344
251	0xbe1e5a31	-0.15464093
252	0xbd9bce3d	-0.07607696
253	0x3ec81da9	0.3908513
254	0xbde2a0e5	-0.110658444
255	0x3ca67dcd	0.020323658

conv2d_6/bias:0 f4 [32]
0	0x3b85959c	0.0040766727
1	0xbdad0173	-0.08447542
2	0xbdf5d288	-0.12003046
3	0xbdaba47f	-0.083809845
4	0x3d200bfb	0.039073925
5	0xbe2fcaa8	-0.17167151
6	0x3b0f6a12	0.0021883291
7	0xbbc0eab2	-0.005887353
8	0x3e2b97d8	0.16757143
9	0x3d6e8ce3	0.05823983
10	0x3d261d74	0.040555432
11	0x3c5085be	0.012727199
12	0xbe431957	-0.19052635
13	0xbe23e46a	-0.16005102
14	0xbe9b18eb	-0.30292448
15	0xbe9f5229	-0.3111737
16	0x3d563782	0.05229903
17	0x3d25f70e	0.040518813
18	0xbc1266b2	-0.008935617
19	0xbd1ffd46	-0.0390599
20	0x3d45a919	0.048256967
21	0xbd88a009	-0.06671149
22	0xbe0538bd	-0.13009925
23	0x3deeadb8	0.11654228
24	0xbd65fad1	-0.0561474
25	0x3d5a9e5f	0.05337369
26	0xbda50df3	-0.08059301
27	0xbe05a6ea	-0.13051954
28	0xbdf0ff22	-0.11767413
29	0xbc499543	-0.012303653
30	0xbe084b0f	-0.13309883
31	0xbe732f70	-0.23748565
